model.pth (torch, 89871 bytes, 8 tensors)

conv1.weight f4 [10, 1, 5, 5]
0	0xbe22240e	-0.15834066
1	0x3e275201	0.16339876
2	0x3c7cab51	0.015421704
3	0x3e2e1f15	0.17004044
4	0x3dd4b208	0.10385519
5	0xbbd9903c	-0.0066395085
6	0x3da0fb91	0.078604825
7	0x3d2f0f34	0.04273911
8	0x3df3cf7c	0.11904809
9	0xbca32633	-0.019915676
10	0xbce7da26	-0.028302263
11	0xbcfbd4e9	-0.030741172
12	0x3c75092c	0.0149558
13	0xbbbcfb37	-0.005767252
14	0x3e43152d	0.19051047
15	0x3cee92ad	0.029122675
16	0xbde2b78e	-0.110701665
17	0xbe2c88c0	-0.16849041
18	0xbda99707	-0.08280759
19	0xbde16686	-0.11005883
20	0xbdc97657	-0.09837025
21	0xbd182ce8	-0.0371522
22	0x3d5c6459	0.053806636
23	0x3d4ba439	0.04971716
24	0xbe681310	-0.22663522
25	0x3e56f313	0.20991163
26	0x3e24bfb2	0.16088751
27	0x3e90668e	0.28203243
28	0x3e5d8769	0.21633686
29	0xbde217ef	-0.11039721
30	0xbdfcf1f5	-0.12350837
31	0xbcf791f4	-0.030220963
32	0x3e7d60be	0.24743935
33	0x3d82568e	0.06364165
34	0x3e3d344b	0.1847698
35	0xbdad7e32	-0.084713355
36	0x3e40faf2	0.18845728
37	0xbd90633e	-0.07050179
38	0x3e47df37	0.19518743
39	0x3d93c848	0.07215935
40	0xbe2c68f3	-0.1683691
41	0x3d0dd7e7	0.03462973
42	0xbe176737	-0.14785467
43	0x3d1c1146	0.03810241
44	0xbd19f023	-0.037582528
45	0xbdf7ecf0	-0.12105739
46	0xbe8d51fc	-0.27601612
47	0xbe222ef9	-0.15838231
48	0x3d7be081	0.0614934
49	0xbd75ad12	-0.059979506
50	0x3e8a5bc2	0.2702313
51	0x3e87207d	0.26391974
52	0x3df2c6e0	0.11854339
53	0xbc56c31e	-0.013108043
54	0x3e51b022	0.20477346
55	0x3df972fc	0.12180135
56	0xbcee3b48	-0.029081002
57	0x3e89d74b	0.26922068
58	0x3e818b2f	0.253015
59	0x3e87adf4	0.26499903
60	0xbdd74fe4	-0.10513285
61	0x3c5b6a65	0.013392066
62	0x3d97b50f	0.07407581
63	0x3dc497fd	0.09599302
64	0xbdfdec6e	-0.12398611
65	0xbe298b6c	-0.16557091
66	0x3df7a31e	0.12091659
67	0xbc94a64b	-0.0181457
68	0x3de104a4	0.10987213
69	0xbaf1c7d7	-0.0018446398
70	0x3cbd301e	0.023094233
71	0x3d0d9cf9	0.03457353
72	0x3d9ec43f	0.07752275
73	0x3daea1d2	0.085269585
74	0xbe61d6e1	-0.22054626
75	0x3de43ba0	0.11144185
76	0xbe0735b6	-0.13204083
77	0xbe145338	-0.1448487
78	0x3c8bc311	0.017060788
79	0xbccb2010	-0.024795562
80	0x3e09e26b	0.13465278
81	0xbdc89a55	-0.097950615
82	0xbe2c06ef	-0.1679952
83	0x3e22e2a5	0.1590677
84	0xbc7a2cad	-0.015269441
85	0x3e173c83	0.14769177
86	0x3dcd69cb	0.10029944
87	0xbdf27b68	-0.11839944
88	0x3db1cfa3	0.08682182
89	0x3dbc4f7b	0.09194847
90	0xbdcb098f	-0.099139325
91	0xbd48688e	-0.048927836
92	0x3e09d386	0.13459596
93	0x3df622f6	0.12018387
94	0xbc511e80	-0.012763619
95	0xbcf650ed	-0.030067885
96	0x3e6e49d6	0.23270354
97	0x3cfa5597	0.03055839
98	0x3e4bea00	0.19913483
99	0x3e254fb1	0.16143681
100	0xbdbca7dd	-0.09211705
101	0xbdcdc8fc	-0.100481
102	0x3e9cea30	0.3064742
103	0x3e0d306f	0.13788007
104	0x3e6cdb2f	0.23130487
105	0x3df119ee	0.11772524
106	0x3e309e2e	0.17247841
107	0x3e97a5ca	0.29618675
108	0x3ead94e7	0.33902666
109	0xbcbd8600	-0.023135185
110	0x3da2fb64	0.07958105
111	0x3e62227e	0.2208347
112	0x3e7b2aa1	0.2452798
113	0x3e6db083	0.23211865
114	0xbd757b86	-0.059932254
115	0xbe24f9de	-0.16110942
116	0xbdf8f896	-0.12156789
117	0x3d8370c2	0.06417991
118	0x3e85a676	0.26103562
119	0xbd90af02	-0.0706463
120	0x3d363e4c	0.044493005
121	0xbe0d9488	-0.13826191
122	0xbe2fb441	-0.17158605
123	0xbc77be5b	-0.015121068
124	0x3e17c4a0	0.148211
125	0x3e80cd19	0.25156477
126	0xbd4f6926	-0.050637387
127	0x3e0b46dc	0.1360125
128	0x3e845f8d	0.2585415
129	0x3e2584f7	0.16164003
130	0x3e40b209	0.18817915
131	0x3e6e1ab3	0.23252372
132	0x3e77d230	0.24201274
133	0x3e17dcf3	0.14830379
134	0xbddab93b	-0.10679861
135	0xbe10ca32	-0.14139631
136	0xbce2a4fc	-0.027666561
137	0x3da6bc60	0.081413984
138	0xbce4d2c8	-0.02793254
139	0x3e017547	0.12642394
140	0x3da0bc36	0.078483984
141	0x3be5fed7	0.0070189047
142	0x3e337bda	0.17527714
143	0x3e2bc202	0.16773227
144	0x3e4c6cfd	0.1996345
145	0x3e0ad968	0.13559496
146	0xbd2303d2	-0.039798565
147	0x3e8578e2	0.2606879
148	0x3d4b2723	0.04959787
149	0x3d456d8a	0.048200168
150	0xbe660c43	-0.22465615
151	0xbe1cad94	-0.1530059
152	0xbdd65d6b	-0.10467037
153	0xbc88e1c6	-0.01670922
154	0x3e63cbf3	0.22245769
155	0xbdf453d6	-0.11930053
156	0xbe3323da	-0.17494145
157	0x3ded94a7	0.11600619
158	0x3e24b14a	0.16083255
159	0x3e601062	0.2188125
160	0xbe2533ef	-0.16133092
161	0x3d1127cd	0.035438348
162	0x3c2eba4b	0.010664533
163	0x3dc08914	0.094011456
164	0xbd60aea0	-0.054854035
165	0xbdf0e96e	-0.11763273
166	0xbc801ee6	-0.015639734
167	0x3e5bf450	0.21479917
168	0x3e431ee7	0.19054757
169	0x3e1781d1	0.14795615
170	0x3e76240b	0.24037187
171	0x3e927296	0.28603047
172	0x3e8988e8	0.26862264
173	0x3e0234fa	0.12715521
174	0xbd969a5a	-0.07353659
175	0x3e07c7fe	0.13259885
176	0xbda63c7b	-0.081170045
177	0xbd253c49	-0.040340696
178	0xbe43bf1b	-0.1911587
179	0xbd6bb2c9	-0.05754355
180	0xbe17691f	-0.14786194
181	0x3e1e9f61	0.15490486
182	0xbe4b763a	-0.19869319
183	0xbe3aecf4	-0.18254453
184	0xbcc9df0d	-0.024642492
185	0xbded823f	-0.11597108
186	0x3d64a2fc	0.055819497
187	0xbdbc8355	-0.09204737
188	0xbdd95163	-0.106112264
189	0x3c9a8d81	0.018866302
190	0x3e213165	0.15741499
191	0xbe04ebf2	-0.12980631
192	0x3dea3e65	0.11437682
193	0x3e29a7ec	0.16567963
194	0x3e79fc7c	0.24412721
195	0xbdf0c7b3	-0.117568396
196	0x3da602ce	0.08106004
197	0xbdd70f21	-0.105009325
198	0x3e6453ae	0.22297546
199	0xbcd5469f	-0.026034651
200	0x3e2e4e56	0.1702207
201	0x3da8e381	0.08246518
202	0x3ce59bae	0.028028335
203	0xbcd31f13	-0.025771653
204	0xbca04c5b	-0.01956766
205	0x3e3453bc	0.17610067
206	0x3e035243	0.12824349
207	0x3dd55c8c	0.104180425
208	0xbe4cf831	-0.20016553
209	0x3dda82f2	0.10669507
210	0x3e91807e	0.28418344
211	0x3e8e87cf	0.2783799
212	0x3e448c11	0.19194056
213	0xbe1c057b	-0.15236466
214	0xbdb7c7f8	-0.08973688
215	0x3e8e482d	0.2778944
216	0xbd66885c	-0.056282386
217	0x3e6dfe3f	0.23241518
218	0xbe11e401	-0.14247133
219	0xbe05aa6e	-0.13053295
220	0x3e3630c9	0.17792048
221	0xbd85f6a3	-0.06541183
222	0xb95e3676	-0.00021191858
223	0x3e2c474b	0.16824071
224	0x3e370589	0.17873205
225	0x3e50abc9	0.20378031
226	0xbc42a6a6	-0.011880552
227	0xbde9dd9b	-0.11419221
228	0x3e7c5a67	0.24643861
229	0x3b1f2750	0.0024284907
230	0xbd8306ed	-0.06397805
231	0x3d9688ff	0.07350349
232	0xbdeca8ad	-0.1155561
233	0x3e2314ca	0.15925899
234	0x3e247971	0.16061951
235	0xbe1ddec7	-0.15417014
236	0xbe26503a	-0.16241542
237	0xbcb4df20	-0.02207905
238	0x3d9d3b65	0.07677344
239	0x3b2c94f0	0.002633389
240	0xbddbd905	-0.107347526
241	0xbc3ae807	-0.011407859
242	0xbe574262	-0.21021417
243	0xbe2a68aa	-0.16641489
244	0xbe16c3f8	-0.14723194
245	0x3e1caf2a	0.15301195
246	0x3e1cbfcd	0.15307541
247	0xbdc0663f	-0.09394502
248	0xbcda061a	-0.026614238
249	0x3d58a954	0.05289586

conv1.bias f4 [10]
0	0x3d226103	0.0396433
1	0xbd87d5d1	-0.06632579
2	0x3e247c10	0.16062951
3	0x3e07e160	0.13269567
4	0x3d24e0fa	0.040253617
5	0x3c6cd9c7	0.014456219
6	0x3e5b8019	0.21435584
7	0x3e582933	0.21109466
8	0xbdb04b1a	-0.086080745
9	0x3e41eaab	0.18937175

conv2.weight f4 [20, 10, 5, 5]
0	0x3cd3d119	0.025856541
1	0xbd0d6ba6	-0.03452649
2	0x3d274885	0.040840644
3	0xbd20293e	-0.03910183
4	0x3d813fcd	0.06310997
5	0xbd2834bb	-0.041065913
6	0x3c4a9bd6	0.012366256
7	0x3c4ec94e	0.012621237
8	0x3cae0a92	0.021245275
9	0x3d62b1d7	0.055345383
10	0xbd07b23e	-0.03312897
11	0xbd26128b	-0.040545028
12	0xbd88940a	-0.06668861
13	0x3b504e0e	0.0031784805
14	0xbcebc8f6	-0.02878235
15	0xbbce3496	-0.00629289
16	0xbcc55b94	-0.02409152
17	0x3c980d34	0.018560983
18	0x3d5d43ec	0.054019853
19	0x3ba5b283	0.0050566806
20	0xbcfb887b	-0.030704727
21	0xbd1bf14a	-0.038071908
22	0xbd4d15dc	-0.050069675
23	0x3d5d3707	0.054007556
24	0xbcd6b664	-0.026210018
25	0x3d0d5aff	0.03451061
26	0x3ca9031b	0.020631364
27	0xbca43b86	-0.020047914
28	0x3d739a51	0.05947334
29	0x3d2aaba0	0.04166758
30	0x3b880479	0.004150924
31	0xbd3ed22e	-0.04658716
32	0xbd21bb21	-0.0394851
33	0xbb6a0e3c	-0.003571405
34	0xbd1c142f	-0.038105186
35	0xbd4ea7b7	-0.050452914
36	0xbd0a3e9a	-0.033751108
37	0xbd48f086	-0.049057506
38	0xbba2b30e	-0.0049651926
39	0xbd015772	-0.031577535
40	0xbcf2eafb	-0.029653063
41	0xbd48e137	-0.049042907
42	0xbd97ccf6	-0.0741214
43	0x3d2de2fa	0.04245279
44	0xbcadf4ca	-0.021234889
45	0x3d07877f	0.033088204
46	0xbd168867	-0.036751177
47	0xbc96bd1e	-0.018400725
48	0xbd45edb7	-0.048322406
49	0xbd4e1515	-0.050313074
50	0x3d8c8a7c	0.06862351
51	0xbd36fdbe	-0.04467558
52	0xbc80a2a1	-0.015702548
53	0x3d590e9c	0.05299245
54	0x3d8108fe	0.06300543
55	0x3cb34d0c	0.021887325
56	0xbd0f01c2	-0.034913786
57	0xbd069e7a	-0.03286598
58	0x3c1e8693	0.00967564
59	0x3af619b4	0.0018775971
60	0x3c132e0a	0.008983145
61	0xbd71add6	-0.059003673
62	0xbd4c4dd5	-0.049878914
63	0x3d1db344	0.03850104
64	0xbd5bc16b	-0.053651255
65	0xbce383bb	-0.027772775
66	0x3c2c621b	0.010521437
67	0x3d211d3c	0.03933452
68	0x3d93dccb	0.07219847
69	0xbd9b2c3c	-0.075767964
70	0xbc3debae	-0.011591835
71	0xbce7a446	-0.028276574
72	0xbc8d93e2	-0.01728243
73	0xbcb6b3f9	-0.022302615
74	0xbbd58388	-0.006515924
75	0xba996323	-0.0011702519
76	0xbd3bee6b	-0.04588167
77	0xbd80955f	-0.0627849
78	0xbd4e206c	-0.05032389
79	0x3d91053a	0.07081075
80	0xbc982f22	-0.018577162
81	0xbcec1e94	-0.028823175
82	0xbcd6e79e	-0.02623349
83	0xbc95198b	-0.018200656
84	0xbd8ca1d6	-0.06866805
85	0xbd32c495	-0.043644506
86	0x3d1670f5	0.036728818
87	0x3d12182b	0.03566758
88	0xbb7e36b8	-0.003878994
89	0xbd5eeb0a	-0.05442337
90	0x3d265035	0.040603835
91	0x3d5e1f41	0.054229025
92	0x3db645fb	0.089000665
93	0x3cb44346	0.022004735
94	0x3c948742	0.018130902
95	0x3bfe616c	0.0077630784
96	0xbcb0e7e2	-0.021594945
97	0xbd369015	-0.044571
98	0x3cf04618	0.029330298
99	0xbc50d055	-0.012744983
100	0x3d208bd4	0.03919585
101	0x3bf867f9	0.007580754
102	0xbd4de0c4	-0.05026318
103	0xbc9eaabf	-0.019368527
104	0x3c701c37	0.014655164
105	0xbce21fb5	-0.02760301
106	0xbdb71952	-0.08940376
107	0xbcb0586e	-0.021526542
108	0xbc20ac52	-0.009806709
109	0xbc26b2b9	-0.010174447
110	0xb94076ac	-0.00018354756
111	0xbcf68595	-0.030092994
112	0xbd5e253d	-0.054234732
113	0x3d9620f3	0.07330503
114	0x3cc83368	0.024438575
115	0xbccb8a4f	-0.024846224
116	0xbd4d7313	-0.05015857
117	0xbd28fc92	-0.041256495
118	0x3da54414	0.080696255
119	0xbd6114d7	-0.054951515
120	0xbd7dce43	-0.061964285
121	0x3cde8762	0.027164165
122	0x3d73112e	0.059342556
123	0x3d666ff6	0.056259118
124	0xbd682943	-0.056679975
125	0xbc205862	-0.009786697
126	0x3bf9c9ea	0.007622947
127	0x3d2cf033	0.04222126
128	0x3cbaefe4	0.022819467
129	0xbc8b006b	-0.016967973
130	0x3d462aab	0.048380535
131	0xbd03deff	-0.032195088
132	0x3c9497f9	0.018138872
133	0x3c66adeb	0.014079551
134	0x3d5c0733	0.053717803
135	0x3c289d99	0.01029148
136	0xbd98c39b	-0.07459184
137	0x3ccf9416	0.025339168
138	0x3c0a8b26	0.008456027
139	0xbd86f022	-0.065887704
140	0xbd0107ea	-0.031501688
141	0xbda3e446	-0.08002524
142	0xbc8ecf87	-0.017432941
143	0xbc7baf8b	-0.015361677
144	0x3c73b0ce	0.0148736965
145	0xbc9c5c98	-0.01908712
146	0xbc939405	-0.018014917
147	0x3d6c79d9	0.05773339
148	0x3d747a82	0.059687145
149	0xbd81280b	-0.06306466
150	0x3c7a3e3f	0.01527363
151	0x3c162d7c	0.009166118
152	0xbda93486	-0.08261971
153	0x3d2098ec	0.039208338
154	0xbcd3ca02	-0.02585316
155	0xbccdb558	-0.025110886
156	0xbd91625e	-0.0709884
157	0x3d2749c9	0.04084185
158	0x3d4aedf9	0.049543355
159	0x3da794ce	0.08182679
160	0xb9ddff2d	-0.00042342526
161	0x3c78d2c1	0.015186966
162	0x3bfce7eb	0.0077180765
163	0x3c9b4cb7	0.018957479
164	0x3c7c4712	0.015397804
165	0xbbf2b40a	-0.0074067162
166	0x3a99d644	0.001173683
167	0x3cadb434	0.021204092
168	0x3d5fff9a	0.05468712
169	0xbbcb4f72	-0.006204539
170	0x3ced0e8e	0.028937604
171	0xbc9249c8	-0.017857447
172	0x3dae1d43	0.08501675
173	0x3c890cd7	0.016729755
174	0xba50308c	-0.00079418044
175	0x3d2b1246	0.041765474
176	0xbd74ec82	-0.059795864
177	0x3d4a063f	0.049322363
178	0xbd53c912	-0.051705427
179	0x3d334091	0.043762747
180	0x3ba3df17	0.0050009596
181	0x3ce2eae7	0.0276999
182	0xbc8cf8ba	-0.017208446
183	0x3d5f7020	0.05455029
184	0xbd1e98dc	-0.038719997
185	0xbd5e8b2f	-0.054331955
186	0x3d080e72	0.0332169
187	0x3d8889a1	0.06666876
188	0x3d891639	0.06693692
189	0xbca09005	-0.019599924
190	0x3d870900	0.065935135
191	0x3d6f0c28	0.058361202
192	0xbc3bb1d7	-0.011455975
193	0xbd579ac9	-0.05263785
194	0x3d161e14	0.03664978
195	0xbc98db01	-0.018659117
196	0x3d3b4b21	0.045725945
197	0xbd634451	-0.055485073
198	0x3d161b83	0.03664733
199	0x3cc0ba38	0.023526296
200	0x3c1037e1	0.008802385
201	0x3d002db6	0.031293593
202	0xbd661362	-0.05617083
203	0xbcdf201b	-0.027236989
204	0xba81fac3	-0.0009916652
205	0xbcf85d64	-0.03031797
206	0xbce02496	-0.027361196
207	0xbd78445a	-0.06061206
208	0x3c950b04	0.01819373
209	0x3d7abb52	0.0612138
210	0x3d804348	0.06262833
211	0x3d08c049	0.033386502
212	0xbdc309b4	-0.09523335
213	0x3be7494f	0.0070582996
214	0x3d4f5cd2	0.05062563
215	0xbd089585	-0.033345718
216	0x3bb3094e	0.0054637557
217	0xbd6e1011	-0.05812079
218	0x3d104515	0.03522213
219	0x3d8a9391	0.06766427
220	0x3d9a0515	0.075205006
221	0xbd293879	-0.041313622
222	0xbd52f3be	-0.051501982
223	0x3dc88323	0.09790637
224	0x3d91ef03	0.07125666
225	0x3d44987a	0.047996975
226	0x3d234008	0.039855987
227	0xbc04d9a6	-0.008108532
228	0x3d26e6ef	0.04074758
229	0xbd59548e	-0.053059153
230	0x3c7194e9	0.014744976
231	0x3d0186ce	0.0316227
232	0x3d2ebde0	0.042661548
233	0xbcd91402	-0.026498798
234	0xbd26a640	-0.040685892
235	0x3ca713c4	0.020395167
236	0xbd71a3ff	-0.05899429
237	0xbd837be0	-0.06420112
238	0xbd6353bb	-0.055499773
239	0xbd0b9eb2	-0.03408689
240	0xbc569c7f	-0.013098835
241	0xbd25e31a	-0.040499784
242	0xbce63c64	-0.028104968
243	0xbd8910fc	-0.06692693
244	0x3cca5629	0.024699287
245	0xbcc7725a	-0.02434652
246	0xbd3db0ed	-0.046311308
247	0x3ca6add5	0.020346561
248	0xbd7df08c	-0.06199698
249	0x3d09df3b	0.033660155
250	0x3cccd1ce	0.025002386
251	0xbd93d7bd	-0.07218883
252	0xbd56348a	-0.0522962
253	0xbd2a2d72	-0.041547246
254	0xbd012eab	-0.031538647
255	0xbbb355a9	-0.005472858

conv2.bias f4 [20]
0	0x3c8643d7	0.01638977
1	0xbd42df99	-0.04757652
2	0xbc761bb4	-0.015021253
3	0xbce795f6	-0.02826975
4	0xbd46c92a	-0.04853169
5	0xbc37b264	-0.011211965
6	0x3c523356	0.012829622
7	0xbd42b945	-0.047539968
8	0xbd71a9c6	-0.0589998
9	0x3d410664	0.047125235
10	0xbcdaf210	-0.026726753
11	0xbd37aaa4	-0.04484047
12	0xbc81e742	-0.015857343
13	0xbc8f678c	-0.01750543
14	0xbd58fb97	-0.05297431
15	0x3c21df61	0.009879918
16	0xbd0dc20c	-0.034608886
17	0xbcce63db	-0.0251941
18	0x3ce2a17c	0.027664892
19	0x3c1e460b	0.009660254

fc1.weight f4 [50, 320]
0	0x3d256a4e	0.040384583
1	0xbd2f1e60	-0.042753577
2	0x3d8f9af6	0.07011978
3	0x3d13c938	0.03608057
4	0xbd1e0952	-0.038583107
5	0x3cc69f9a	0.024246026
6	0x3d611153	0.054948162
7	0xb9e2ba6b	-0.0004324497
8	0xbc9d23da	-0.019182134
9	0x3b14716b	0.002265061
10	0x3b506bd2	0.0031802547
11	0xbc6ccc10	-0.014452949
12	0xbcaf1ecc	-0.02137699
13	0x3d7d30ad	0.061814
14	0xbc454ed0	-0.012042716
15	0x3d0ef09f	0.034897443
16	0x3a820c2f	0.0009921844
17	0xbd6469e7	-0.05576506
18	0x3d076444	0.033054605
19	0x3c435e94	0.011924405
20	0x3d1cb477	0.038258042
21	0xbd45da7c	-0.048304066
22	0x3d6e4240	0.05816865
23	0x3d3319e9	0.04372588
24	0x3ccb45a4	0.02481348
25	0xbce3ab11	-0.027791532
26	0x3d474058	0.048645347
27	0x3d38807a	0.0450444
28	0xbcd7f177	-0.026360257
29	0x3be8cd5a	0.007104558
30	0xbd0b86a0	-0.034063935
31	0xbd72c6e3	-0.059271704
32	0x3d4b83dc	0.049686298
33	0x3cf1e9dc	0.029530458
34	0xbcdd2ab8	-0.026997909
35	0x3cf74f1a	0.030189086
36	0x3ce16bd7	0.027517242
37	0x3c6e4f82	0.014545323
38	0xbd75d340	-0.060015917
39	0xbbd4b060	-0.006490752
40	0xbc5f2550	-0.013619736
41	0xbc2cf24e	-0.010555817
42	0x3d847c42	0.06469013
43	0x3c9b814f	0.018982558
44	0xbd0eb038	-0.034836024
45	0x3cff4ae0	0.031163633
46	0x3d0a823d	0.03381561
47	0x3c30504f	0.010761335
48	0xbd02ad39	-0.03190348
49	0x3cf35b04	0.029706486
50	0xbd2cf2fd	-0.04222392
51	0x3ca5340a	0.020166416
52	0xbcfb5e10	-0.030684501
53	0xbbfc1452	-0.007692852
54	0xbd20a7e8	-0.039222628
55	0xbc1ecac8	-0.0096919015
56	0xbd784a4f	-0.06061774
57	0x3be249f5	0.006905789
58	0x3d443361	0.04790056
59	0xbd44527e	-0.047930233
60	0x3d054e8f	0.032545622
61	0x3d96631d	0.07343123
62	0x3d5a024c	0.053224847
63	0xbb9fb5d8	-0.0048739724
64	0xbd3b1e06	-0.04568293
65	0xbc79a3ca	-0.015236804
66	0xbcdbf1ff	-0.026848791
67	0xbae9d2e7	-0.0017839343
68	0xbd689847	-0.056785848
69	0xbcd28c88	-0.025701776
70	0xbc2bf2cd	-0.0104949
71	0xbb905738	-0.0044049285
72	0x3c8b271a	0.016986419
73	0x3d48621a	0.048921682
74	0xbc8f7d56	-0.01751582
75	0xbd3df3ec	-0.0463752
76	0x3ba1199f	0.0049163844
77	0x3dff6d10	0.12471974
78	0x3d481f37	0.048857894
79	0xbd67b857	-0.056572285
80	0xbd75776f	-0.059928354
81	0xbc8a128f	-0.016854553
82	0xbd227418	-0.039661497
83	0x3c850cda	0.01624148
84	0xbb8c348f	-0.0042787264
85	0x3cd0fabe	0.025510188
86	0xbc2e61f3	-0.01064347
87	0xbd362d3d	-0.044476736
88	0x3cf72ce5	0.030172775
89	0x3dac64f4	0.08417693
90	0x3d7c53dd	0.061603416
91	0xbd19f9c7	-0.03759172
92	0x3c0411a8	0.00806085
93	0x3d3447a9	0.044013653
94	0xbcc9511b	-0.024574807
95	0xbd097954	-0.033562973
96	0x3d21ffaa	0.03955046
97	0xb893788c	-7.03196e-05
98	0xbb99594a	-0.0046798335
99	0x3d4b69c4	0.049661413
100	0x3adfea3f	0.001708336
101	0xbd1f85ad	-0.038945843
102	0x3d2a6d54	0.04160817
103	0x3d23c011	0.03997809
104	0x3d430bb7	0.047618594
105	0x3c385dc1	0.011252821
106	0xbc3730af	-0.011181041
107	0x3d074abf	0.033030268
108	0x3d5c67e6	0.053810023
109	0xbc900dcc	-0.017584704
110	0x3d57c1a7	0.052674916
111	0x3cec6cbd	0.028860444
112	0x3c91ab28	0.017781809
113	0xbc668c61	-0.014071555
114	0xbc20daad	-0.009817761
115	0x3d3751c8	0.044755727
116	0x3ce5da53	0.028058207
117	0x3d6e9fe5	0.058257956
118	0xbc087558	-0.008328758
119	0x3b99d298	0.004694294
120	0xbbb06288	-0.0053828396
121	0x3b1da945	0.0024057191
122	0x3d1ebfa4	0.03875698
123	0x3cb69960	0.022289932
124	0xbdd01d80	-0.10161877
125	0xbd2a2aca	-0.041544713
126	0x3d2fcad9	0.04291806
127	0xbd4f348d	-0.050587226
128	0x3d2365f8	0.039892167
129	0x3d255e8f	0.04037338
130	0x3cfdde84	0.030989893
131	0x3cf48083	0.029846435
132	0x3d1229cf	0.035684403
133	0xbd392a10	-0.04520613
134	0xbc968d61	-0.018377962
135	0x3d29ccd3	0.0414551
136	0xbc9a9a77	-0.018872483
137	0x3c0c2032	0.008552598
138	0xbc9f7ae6	-0.019467782
139	0xbafc6d40	-0.0019258633
140	0xbc3d756e	-0.011563642
141	0xbc308bf4	-0.010775555
142	0x3c3190f8	0.010837786
143	0x3d59c918	0.053170294
144	0x3b844fbf	0.004037827
145	0xbb863fe4	-0.004096972
146	0x3d7b4062	0.061340697
147	0xbc680665	-0.014161681
148	0x3bfc5258	0.007700246
149	0x3c80df59	0.0157315
150	0x3cbea334	0.02327118
151	0x3cecf18e	0.028923776
152	0xbc8e36f7	-0.017360194
153	0xbc856eef	-0.016288249
154	0x3c07fbe1	0.008299799
155	0xbabd9cc0	-0.0014466271
156	0xbc44aab6	-0.012003591
157	0x3d0ac99f	0.033883687
158	0xbcd98fe3	-0.026557868
159	0xbb6b6030	-0.0035915487
160	0xbd152d3a	-0.036420085
161	0x3ca00efb	0.019538393
162	0x3d5540fb	0.052063923
163	0xbc95ceed	-0.018287146
164	0xbd4c55d4	-0.04988654
165	0x3d4d9f53	0.05020077
166	0xbcf0331c	-0.029321246
167	0x3d172db2	0.036908813
168	0x3d4a01a4	0.04931797
169	0xbc8e5740	-0.017375588
170	0x3aacc355	0.0013180772
171	0xbcc21120	-0.023689806
172	0x3d468ea8	0.04847589
173	0xbd0d3310	-0.034472525
174	0x3bb3ce4e	0.00548724
175	0xbd048474	-0.03235288
176	0x3d30fe3b	0.043211203
177	0x3d37931f	0.04481804
178	0x3d98a9ea	0.074542835
179	0xbc4e61cc	-0.012596559
180	0x3c8d0458	0.017213985
181	0xbd33b6cf	-0.04387551
182	0x3d3c235c	0.04593216
183	0xbc73babb	-0.014876063
184	0xbd21d37c	-0.039508328
185	0xbbe81d8e	-0.0070836013
186	0xbd1ad6e8	-0.037802607
187	0xbc4378db	-0.01193067
188	0xbd5d0f62	-0.05396975
189	0x3c1c86dd	0.009553638
190	0xbc3f50b7	-0.011676959
191	0xbd0ddb81	-0.034633163
192	0x3be51b99	0.0069918153
193	0x3d4faee4	0.050703898
194	0x3cb4d868	0.022075847
195	0x3c29cec6	0.01036424
196	0xbc12f779	-0.008970135
197	0xbd4388ce	-0.04773789
198	0xbca1c64b	-0.019747874
199	0xbcacce59	-0.021094488
200	0x3ca942a4	0.02066166
201	0x3ab5a354	0.001385788
202	0x3ccceb72	0.025014613
203	0xbce977b5	-0.028499464
204	0xbd89ac12	-0.06722273
205	0x3ca417d3	0.020030892
206	0x3d1567c5	0.036475915
207	0x3ce17904	0.027523525
208	0x3d62d82c	0.05538194
209	0xbd3ce598	-0.046117395
210	0x3cce9f22	0.025222365
211	0x3d1a575d	0.037680972
212	0xbd11fc84	-0.03564121
213	0x3d02940d	0.031879473
214	0x3ce33bd8	0.027738497
215	0x3bea5028	0.0071506687
216	0xbd43c512	-0.047795363
217	0x3cb86575	0.022509316
218	0x3d3cd6d3	0.04610331
219	0xbbb18be3	-0.005418287
220	0x3d02ac14	0.031902388
221	0x3d24a7f7	0.040199246
222	0xbd0eb3a9	-0.034839306
223	0xbd49f131	-0.049302284
224	0x3d0480d6	0.03234943
225	0x3c8d35f4	0.01723764
226	0x3c1da76c	0.009622436
227	0xbcc5aeee	-0.024131265
228	0xbd153d5c	-0.03643547
229	0x3c56a7fa	0.013101572
230	0xbc40e13b	-0.011772449
231	0xbd52352d	-0.051320244
232	0xbc92e26a	-0.017930228
233	0xbc483db7	-0.012221745
234	0xbd7edcca	-0.06222228
235	0x3c9495cc	0.018137835
236	0x3d76f038	0.060287684
237	0x3d096214	0.0335408
238	0xbd83ca13	-0.06435027
239	0xbd11f75e	-0.0356363
240	0xbd1fa22d	-0.038973022
241	0x3d8f7085	0.07003883
242	0x3b960f9d	0.004579498
243	0x3d6791b1	0.056535427
244	0xbd1e66ba	-0.038672186
245	0x3b4b530e	0.0031024846
246	0x3d1ef077	0.038803544
247	0xbd362b51	-0.044474903
248	0xbd13740f	-0.035999354
249	0xba3e656f	-0.00072630396
250	0xbc5311d7	-0.012882671
251	0xbd894c4b	-0.06704005
252	0xbd7b5c76	-0.061367474
253	0x3d095227	0.033525612
254	0xbd645c92	-0.055752344
255	0xbd20ff80	-0.039306164

fc1.bias f4 [50]
0	0x3d0d3fb8	0.034484595
1	0x3ae47ec0	0.0017432794
2	0xbb5dc07d	-0.0033836656
3	0xbd491e76	-0.049101315
4	0x3b1143e4	0.002216571
5	0x3c02fd80	0.007995009
6	0x3ccdc7ba	0.025119651
7	0x3d1f1723	0.038840424
8	0xbc74417d	-0.014908192
9	0xbc04aeb4	-0.008098293
10	0xbc47cd2d	-0.012194914
11	0xbd256bf0	-0.04038614
12	0x3d712c88	0.05888036
13	0x3c24cc79	0.010058516
14	0x3d356692	0.04428727
15	0xbd317dde	-0.043332927
16	0xbbc45b80	-0.005992353
17	0x3d1509b2	0.0363862
18	0xbc15c6f3	-0.0091416715
19	0x3d5351f2	0.05159182
20	0x3d28db31	0.041224662
21	0xbb023189	-0.001986595
22	0x3d32295c	0.043496475
23	0xbcb9dafc	-0.022687428
24	0xbd42d8b3	-0.04756994
25	0xbd1f184a	-0.038841523
26	0xbd26f35d	-0.040759433
27	0x3d3b5949	0.045739446
28	0x3ab5372e	0.0013825649
29	0xbd4cfdf8	-0.05004689
30	0xbd3034aa	-0.043018974
31	0x3d5676ec	0.052359506
32	0xbba91a84	-0.0051606316
33	0xbd2e0a6e	-0.042490415
34	0x3d2f47d1	0.0427931
35	0xbcbe6996	-0.023243707
36	0x3a38a02c	0.00070429104
37	0x3d8178da	0.06321879
38	0x3cbf62a3	0.023362463
39	0xbd5fd1b3	-0.054643344
40	0xbc9541a3	-0.018219775
41	0xb7b08f92	-2.104769e-05
42	0xbd796944	-0.060891405
43	0xbd480ee8	-0.04884234
44	0x3d6089cb	0.05481891
45	0x3c980f97	0.018562121
46	0x3d49773c	0.049185976
47	0x3bb5e857	0.0055513787
48	0xbb43285e	-0.00297787
49	0xbb21d4f6	-0.0024693585

fc2.weight f4 [10, 50]
0	0xbe40d375	-0.18830664
1	0xbdff3366	-0.12460975
2	0xbddf1f9b	-0.108947
3	0xbdb5728b	-0.08859738
4	0x3d4d834d	0.050174046
5	0xbdad69da	-0.08467455
6	0xbe0c5c5e	-0.1370711
7	0xbd965582	-0.07340528
8	0xbc7eb5dd	-0.015546289
9	0xbccfd3ae	-0.025369491
10	0x3d80c2b8	0.0628714
11	0xbb86d0b5	-0.0041142353
12	0x3e3f7bf0	0.18699622
13	0x3e2db584	0.16963774
14	0x3daf9d0c	0.08574876
15	0x3c1159ad	0.008871478
16	0x3d90c7bc	0.07069346
17	0xbe41f28f	-0.18940185
18	0xbdc22e54	-0.09481493
19	0xbe03a48a	-0.12855735
20	0xbb0b57e7	-0.002126211
21	0xbe180cf3	-0.1484869
22	0xbd8ae44f	-0.06781828
23	0xbe5c225d	-0.21497484
24	0x3e136357	0.14393364
25	0x3dea2169	0.11432154
26	0xbdb4b87a	-0.088242486
27	0xbba885b9	-0.005142894
28	0x3e063078	0.13104427
29	0x3bbe39da	0.0058052363
30	0xbe1240eb	-0.14282577
31	0x3e063ec8	0.13109887
32	0x3d9cd579	0.07657904
33	0x3d0953e8	0.033527285
34	0xbdbd07fe	-0.0923004
35	0xbe3e7a95	-0.18601449
36	0xbe0115cb	-0.1260597
37	0xbe1f7013	-0.15570097
38	0x3d557152	0.052110024
39	0xbcebb2b8	-0.028771743
40	0x3d7892ee	0.060686998
41	0x3e615c5a	0.22007886
42	0xbd4452a5	-0.04793038
43	0xbd2de641	-0.042455915
44	0x3e022de4	0.12712818
45	0x3d34cbde	0.044139735
46	0x3db1ca17	0.08681124
47	0x3e52dee2	0.20592836
48	0xbdb95357	-0.09049099
49	0x3dd0ebd2	0.10201229
50	0x3dd70499	0.10498924
51	0x3e278618	0.16359746
52	0xbe575115	-0.21027024
53	0x3d4da488	0.050205737
54	0xbd9135e4	-0.07090357
55	0xbe1d3919	-0.15353812
56	0x3d64df8b	0.05587725
57	0x3da6f2a5	0.081517495
58	0xbd510c5d	-0.05103718
59	0xbd4c42e5	-0.049868483
60	0x3d3f4615	0.046697695
61	0xbe3ed213	-0.18634824
62	0x3d2ea520	0.042637944
63	0xbce10346	-0.027467381
64	0xbdfeeb34	-0.12447205
65	0x3d8ea627	0.06965285
66	0xbd927616	-0.07151429
67	0x3df992e6	0.12186222
68	0x3d8cdefb	0.06878468
69	0x3e41910d	0.18902989
70	0x3d853f1c	0.06506178
71	0xbe58e22c	-0.21180028
72	0xbe4145a1	-0.18874218
73	0x3e3d75d9	0.18501987
74	0x3d1dcc18	0.038524717
75	0x3e0c2f89	0.13690008
76	0x3dc35c75	0.09539119
77	0x3def79fb	0.11693188
78	0xbe04b9eb	-0.12961547
79	0xbd46e2d5	-0.048556168
80	0x3e3677ae	0.17819092
81	0x399d5500	0.00030008703
82	0xbe0655ed	-0.13118716
83	0xbddb8f77	-0.10720723
84	0xbb863e17	-0.004096757
85	0x3e0d7c33	0.1381691
86	0xbd33a9cc	-0.043863103
87	0x3e1ba9f7	0.15201555
88	0x3c08a3a0	0.0083397925
89	0xbe0e352c	-0.13887471
90	0x3de663ec	0.11249527
91	0xbe1b3620	-0.15157366
92	0xbe050fe6	-0.12994346
93	0x3e02fecd	0.12792511
94	0xbe34352f	-0.17598413
95	0x3cd0420e	0.025422122
96	0x3c1f024c	0.009705137
97	0xbda4d2d4	-0.08048025
98	0xbda3c4c2	-0.07996513
99	0xbe147636	-0.14498219
100	0xbe175bad	-0.14781065
101	0x3db73485	0.08945564
102	0x3db7c7bd	0.08973644
103	0xbd39d8fb	-0.045372944
104	0x3e046d55	0.12932332
105	0x3c313a49	0.010817119
106	0x3dd860f9	0.10565371
107	0x3e143e43	0.14476876
108	0x3d97cc43	0.07412007
109	0x3e1b0b18	0.1514095
110	0xbc8509ab	-0.016239962
111	0x3c62214d	0.013801885
112	0xbd8c8b52	-0.06862511
113	0x3d4e87c6	0.050422452
114	0xbe078da0	-0.1323762
115	0xbde37553	-0.11106362
116	0xbdb5941c	-0.0886614
117	0x3de19496	0.11014669
118	0xbe038703	-0.12844472
119	0xbe322b41	-0.17399313
120	0xbdde85df	-0.10865378
121	0xbd971f31	-0.07378996
122	0xbdd83348	-0.10556656
123	0x3daef8a0	0.08543515
124	0xbdfb9902	-0.12285043
125	0x3c447001	0.011989594
126	0xbe0f3dd5	-0.13988431
127	0xbd1478b5	-0.036247928
128	0xbbe36eef	-0.0069407145
129	0xbe03a8e5	-0.12857397
130	0x3e35040a	0.17677322
131	0x3df14ea6	0.11782579
132	0xbdd6eb52	-0.104941025
133	0xbe0a0b0d	-0.13480778
134	0x3e0047b0	0.12527347
135	0xbd000353	-0.03125317
136	0x3e058913	0.13040571
137	0x3dbfefa0	0.09371877
138	0xbd7fe8a5	-0.062477726
139	0xbcb8440c	-0.022493385
140	0x3cf05cc9	0.029341118
141	0x3e5b2909	0.21402372
142	0x3e020f27	0.12701093
143	0x3cef0db6	0.029181343
144	0xbdee473b	-0.1163468
145	0x3de57533	0.112039946
146	0x3d434453	0.04767258
147	0x3e0ce027	0.13757382
148	0x3e102f68	0.14080584
149	0x3d5a2ac9	0.05326346
150	0x3d9c48fe	0.0763111
151	0xbe417317	-0.1889156
152	0x3cac7d24	0.021055765
153	0x3d503080	0.050827503
154	0xbbd0d32c	-0.00637283
155	0xbcf96945	-0.030445704
156	0xbd74dcf3	-0.059781026
157	0x3e3fd494	0.18733436
158	0xbdcd8c5a	-0.100365356
159	0xbd87d351	-0.06632102
160	0x3d9ea7c1	0.0774684
161	0xbd8a3177	-0.06747716
162	0xbdc16d3e	-0.094446644
163	0x3c2ea9c6	0.010660594
164	0xbd556042	-0.05209375
165	0x3de84ccb	0.11342772
166	0x3d4f7b38	0.05065462
167	0x3e104d7f	0.14092062
168	0x3e103163	0.1408134
169	0xbd8498f9	-0.0647449
170	0xbdefec22	-0.11714961
171	0xbde02003	-0.10943606
172	0x3d64ccb4	0.055859283
173	0xbe05f7e4	-0.13082844
174	0x3e09ce4c	0.13457602
175	0xbdbdd6d4	-0.09269491
176	0xbdaeab65	-0.08528785
177	0x3e3b426f	0.18287061
178	0xbdda0fcd	-0.10647545
179	0x3db48c8d	0.088158704
180	0x3dbfd78a	0.09367283
181	0x3df506fe	0.11964224
182	0x3dcd7db9	0.10033745
183	0xbc0ca83a	-0.00858503
184	0xbe2d0ad1	-0.16898657
185	0xbcaeb5e8	-0.021326974
186	0x3d97b7f5	0.07408134
187	0x3dfa9170	0.12234771
188	0xbe09deeb	-0.13463943
189	0x3e173c80	0.14769173
190	0xbc29728d	-0.010342252
191	0x3cfc8b0c	0.030828021
192	0xbdc8be66	-0.098019406
193	0xbd4ea0b1	-0.050446216
194	0x3d3560ea	0.044281878
195	0x3e0026f0	0.12514853
196	0x3c2556e3	0.010091516
197	0x3b633c04	0.0034673223
198	0x3d9f6436	0.077827856
199	0x3d81ca30	0.06337392
200	0x3dd75fce	0.1051632
201	0x3db3c7c7	0.08778339
202	0x3e02db4c	0.12778968
203	0xbdb0f4ae	-0.08640419
204	0x3d41dac1	0.04732776
205	0xbe1ae311	-0.15125681
206	0x3e2ba31f	0.16761445
207	0x3d8d0b35	0.06886903
208	0x3d952e9b	0.0728428
209	0xbdb3ff7e	-0.08788966
210	0x3dbdc7b3	0.09266605
211	0x3e2da87c	0.16958803
212	0xbd5870f8	-0.05284211
213	0xbd1aa5a9	-0.037755642
214	0xbae0a16d	-0.0017137952
215	0xbdf427fe	-0.119216904
216	0xbe1064d2	-0.1410096
217	0xbe33090f	-0.17483924
218	0x3e26b86e	0.16281292
219	0x3d6c92cf	0.057757195
220	0x3d168b1d	0.036753763
221	0x3dc2c843	0.09510853
222	0xbbaf6f88	-0.0053538717
223	0xbd542881	-0.05179644
224	0xbcb0ce28	-0.021582678
225	0xbbba85cd	-0.00569222
226	0x3cd5542f	0.026041118
227	0x3d2b5ead	0.041838337
228	0xbe220df3	-0.15825634
229	0xbe00204e	-0.12512323
230	0xbdf5eb26	-0.12007742
231	0xbe0dfdb1	-0.13866307
232	0x3c533055	0.012889941
233	0x3e6b2e6b	0.22966926
234	0x3e327802	0.17428592
235	0x3dc5cd05	0.09658245
236	0xbd804c40	-0.062645435
237	0xbd2fed4f	-0.042950924
238	0xbc72919d	-0.014805225
239	0xbc3252b9	-0.01088398
240	0xbe2074c1	-0.15669538
241	0x3d3b2a10	0.04569441
242	0xbdb7c9d3	-0.08974042
243	0xbe021b5d	-0.12705751
244	0x3e2513ff	0.16120909
245	0xbd1e265e	-0.03861081
246	0xbd0ac982	-0.03388358
247	0xbdbbbe5c	-0.091671675
248	0xbde037e4	-0.1094816
249	0xbe5c2da0	-0.2150178
250	0x3cc3e4d7	0.02391283
251	0x3d38edb6	0.045148574
252	0xbda081be	-0.07837246
253	0xbdd9a57a	-0.10627265
254	0x3d9815c3	0.07426026
255	0xbdb5501b	-0.088531695

fc2.bias f4 [10]
0	0x3d56a7d1	0.052406136
1	0x3c9f4e1f	0.01944643
2	0xbc71c4b4	-0.01475637
3	0xbdbc2ae9	-0.09187872
4	0xbdac3bb3	-0.08409824
5	0xbcdf986e	-0.027294364
6	0x3cd8e2ff	0.026475428
7	0xbd2583d9	-0.040408943
8	0x3df34032	0.11877479
9	0x3de89626	0.113567635
